Neural Network Classification/model2.pt (torch, 3262 bytes, 6 tensors)

network.0.weight f4 [10, 4]
000000 94 14 fb 3e 37 12 3d bf 16 38 a5 3f a3 03 d8 3f
       0.49039137 -0.7385592 1.2907741 1.687611
000010 06 7f 13 bf 4b 0c ec 3e 12 9c 74 bf 59 7c 86 bf
       -0.576157 0.4610313 -0.95550644 -1.0506698
000020 24 4b 24 bf 31 85 2e 3f 85 6a db be 3e 50 86 bf
       -0.64177155 0.68171984 -0.42854705 -1.0493238
000030 23 0b c9 3e ca c8 1e bf bd a2 03 3f 36 d8 12 be
       0.3926631 -0.6202513 0.51420194 -0.1434029
000040 3b 02 8d be b2 e2 d2 3e a9 d3 6b bf d9 14 83 bf
       -0.27540764 0.4118858 -0.9211984 -1.0240737
000050 38 ef 0f 3e 2b 8b e6 3e 33 b0 5b bf 25 a0 fb be
       0.14056098 0.45028052 -0.85815734 -0.49145618
000060 01 13 49 bf d5 0f 16 3f 9a e6 27 bf bf e1 be be
       -0.7854462 0.5861791 -0.65586245 -0.37281606
000070 84 0e 8a be 33 f2 0f 3f 72 75 11 bf 77 af 64 bf
       -0.269642 0.5622894 -0.5681983 -0.8933024
000080 71 77 0b 3f 61 8b e0 be 94 39 20 bf 60 8b 46 bf
       0.5447913 -0.43856338 -0.6258786 -0.7755642
000090 07 f9 42 bf a9 a1 2f 3f b7 9b 72 bf 69 32 29 bf
       -0.76161236 0.6860605 -0.9476885 -0.66092545

network.0.bias f4 [10]
000000 a0 3d 95 be 7c f2 0d 3e 6a e1 29 3e 9a d2 90 3f
       -0.2914858 0.13862032 0.16589895 1.131427
000010 e6 14 84 3e 31 45 d5 3f 23 99 1b 3d d3 ca 56 3e
       0.25797194 1.666174 0.03798784 0.20975809
000020 23 05 5d 3f 1e 0d 2f 3e
       0.86335963 0.17094848

network.2.weight f4 [10, 10]
000000 0d c3 67 bf 21 9f fe be 08 37 5d bf 60 c4 ea 3e
       -0.90532 -0.4973078 -0.86412096 0.45852947
000010 46 3f 0a bf b7 23 84 3f 4e 23 25 bf 77 27 33 bf
       -0.540028 1.0323399 -0.64506996 -0.69982094
000020 4e de 70 3f 4b ee 46 bf 84 06 2d 3f 43 c5 ab be
       0.9408921 -0.77707356 0.6758807 -0.33548936
000030 ea e5 77 be de 2b 2b 3f d5 6d 73 be 85 f7 3e bf
       -0.24208799 0.6686381 -0.23772366 -0.74596435
000040 61 25 65 be 6f 54 1c bf 40 95 5b bf 6f 53 43 bb
       -0.2237754 -0.61066335 -0.8577461 -0.002980437
000050 e2 81 49 bf e7 d2 29 3e 6f 7e 1a 3f 0a 69 86 be
       -0.7871381 0.16584359 0.6034917 -0.26252013
000060 40 ac 77 3e 0c 38 c4 3f 58 cd c5 3e 26 32 8e 3e
       0.24186802 1.5329604 0.38633227 0.27772635
000070 d0 f7 d8 3f a4 0f ae 3d e3 56 62 bf 37 0f 68 3e
       1.6950626 0.08499077 -0.8841383 0.22662054
000080 95 c3 00 3e e1 f4 1f be 55 82 9c 3e b9 ab b7 3f
       0.12574609 -0.15620758 0.30568185 1.434928
000090 5d c5 a5 bc 09 20 17 3e 85 42 ce 3f 7b 58 06 3f
       -0.020235712 0.14758314 1.611405 0.5247876
0000a0 b0 83 84 bf d0 ae cb be 16 7d ff be 83 fa 66 3e
       -1.0352688 -0.3978181 -0.4990012 0.225565
0000b0 6d 38 de be 6d 61 2f 3f f4 78 19 bf 97 f2 78 bf
       -0.43402424 0.68508035 -0.59950185 -0.9724516
0000c0 ea 84 8a 3f c4 21 0b bf 78 35 6d 3f 0c 97 aa be
       1.0821812 -0.543484 0.9265971 -0.33318365
0000d0 1f a2 85 be 68 e4 0b 3f f9 d7 1c bf 24 ad 13 bf
       -0.2610025 0.54645395 -0.6126705 -0.57686067
0000e0 ac bb 84 bd 85 d0 34 bf c4 42 78 bb 9b 9d ba be
       -0.06481108 -0.70630676 -0.0037881592 -0.36448368
0000f0 24 c0 85 3f cd 59 4a 3f 1d 7a 7b 3f a6 00 99 be
       1.0449262 0.79043275 0.98233205 -0.29883307
000100 b7 cd 22 3f 67 01 c7 bf 75 4f 17 3f 22 d7 1b 3f
       0.63595146 -1.5547303 0.59105617 0.6087514
000110 c6 df 95 bf eb 17 67 3f dc 5c 06 bf ea 46 b4 3e
       -1.1708915 0.9027087 -0.5248544 0.35210353
000120 47 68 03 3f 3e 32 7d bf 45 b1 1a 3f 87 39 a9 be
       0.5133099 -0.9890479 0.6042674 -0.33051702
000130 a7 70 85 3e 8a 4a 18 3f 37 43 6d be c7 63 1f 3f
       0.2606251 0.5948874 -0.23170172 0.62261623
000140 cb 2c 90 bf 36 fc 40 bf db 36 0f bf 38 d9 b1 3e
       -1.126367 -0.75384843 -0.5594308 0.34736037
000150 56 df e6 be 5c 44 b9 3f 34 2d 66 bf 30 4a 81 bf
       -0.45092267 1.4473987 -0.89912724 -1.0100765
000160 32 04 96 3f 0b 29 44 bf 03 7b 6a 3f d3 bf ee be
       1.172003 -0.76625127 0.9159395 -0.46630725
000170 26 de 03 bf be 1b 29 3f 4d 3e 4a bc fa a3 08 bf
       -0.51510847 0.66057956 -0.012343955 -0.5337521
000180 07 e1 05 bf 23 7a b9 be 4f 9a 6c be f5 f5 19 bf
       -0.5229649 -0.36225995 -0.23105739 -0.60140926

network.2.bias f4 [10]
000000 74 00 d7 3e 39 4a c2 3d e6 c4 ca ba b5 a1 c8 3d
       0.41992533 0.09486813 -0.0015470057 0.09796468
000010 6f 4e 54 3f f5 1b d1 3e 76 e7 3d be 93 0e 5d bf
       0.8293218 0.40841642 -0.18545327 -0.86350363
000020 98 66 9b 3e 5c b9 c8 3d
       0.3035171 0.098009795

network.4.weight f4 [3, 10]
000000 bf a0 60 bf 11 16 96 bf f7 14 6b 3f 2b 5c 7c 3f
       -0.8774528 -1.1725484 0.91828865 0.9857814
000010 e5 07 57 bf d4 78 87 bf 5c f4 18 3f 03 47 89 3f
       -0.8399642 -1.0583749 0.5974786 1.0724796
000020 83 d6 4a bf 0c 83 51 bf 67 f2 37 3f 10 dc 9b bb
       -0.7923357 -0.81840587 0.7185425 -0.004756458
000030 4e a5 2d 3f a9 d0 32 3f 11 4a 6c 3f 32 aa ab bd
       0.6783036 0.6984964 0.92300516 -0.083820716
000040 b9 c1 a8 bf bd 6a 6c bf b6 8b 97 3f 9d 80 1a 3e
       -1.318412 -0.9235037 1.1839511 0.15088125
000050 19 30 a1 bd 3f ea 52 3f 1e 11 92 bf 6f 12 9f bf
       -0.07870502 0.8238868 -1.1411474 -1.24275
000060 60 5d f4 be 1f 2a f0 3e 59 36 38 3f 05 0a 38 bf
       -0.4772749 0.46907136 0.7195793 -0.7189029
000070 41 1a 55 bf 96 b8 3b 3f
       -0.83243185 0.7332853

network.4.bias f4 [3]
000000 18 c0 43 3e d2 f0 a9 be aa cf dc 3e
       0.19116247 -0.33191544 0.43127185
