Neural Network Classification/model1.pt (torch, 3326 bytes, 6 tensors)

network.0.weight f4 [10, 4]
000000 15 c8 d5 bc 11 af 20 bf de 31 5a 3f c6 19 16 3e
       -0.026096383 -0.6276713 0.8523234 0.1465827
000010 04 f6 3c 3f f4 c6 d3 be 32 3f 23 3f 60 26 ab 3e
       0.7381289 -0.41362727 0.63768303 0.33427715
000020 c0 23 63 3e ae 60 ab 3d ed da 41 bf b0 30 cc be
       0.22181606 0.083680496 -0.7572468 -0.39880896
000030 d4 1f 5a 3f 5e a6 d2 be 20 d9 59 3e 4e f8 02 3f
       0.85204816 -0.41142553 0.21274233 0.5116013
000040 87 3d e0 bd 2e 2f fe 3e f7 f2 b9 be 37 da e2 be
       -0.109492354 0.4964537 -0.3631818 -0.4430711
000050 4f 1c a9 be 3f d3 29 bf 04 50 3f 3f 86 11 ff 3e
       -0.3302941 -0.6633796 0.7473147 0.49818057
000060 90 c4 45 be 8f 61 65 bd e4 fe 4a 3f ed 91 34 3f
       -0.19313264 -0.056001242 0.7929518 0.70535165
000070 30 e5 46 bd 1c 60 0c 3f 89 6a 22 bf bb f0 44 bf
       -0.048558414 0.5483415 -0.6344381 -0.76929826
000080 fd 25 68 be cc fc 96 bd c5 08 82 be f1 aa 1d bf
       -0.22670741 -0.07372436 -0.25397316 -0.6158896
000090 fc 6b 7c 3d cb 3c b4 3c 1f dc 16 bf 83 0b f3 be
       0.06162642 0.022001645 -0.5892963 -0.4746972

network.0.bias f4 [10]
000000 6d 39 49 be 2e b1 41 3f 0c 64 49 3f 65 ae 0d 3f
       -0.19650812 0.7566098 0.78668284 0.5534423
000010 34 29 b6 3e 03 30 f2 be 30 c8 5b bf b6 eb 08 be
       0.3557831 -0.47302255 -0.85852337 -0.13371167
000020 77 35 05 3f fb 40 aa 3e
       0.52034706 0.332527

network.2.weight f4 [10, 10]
000000 71 c9 96 3d 3b d8 a9 3e 4f a6 6a 3f d8 51 47 3e
       0.07362641 0.33172783 0.91660017 0.19464815
000010 f8 bb 04 3f e3 7e ba be 2f b8 69 bf 80 69 a7 3c
       0.5184932 -0.36424932 -0.91296667 0.020436049
000020 5d 6a 92 3e 0a d1 75 3e 46 4f f1 3e dc 05 ad 3d
       0.28596774 0.24005523 0.47130793 0.08448383
000030 a4 61 0d bf 3a 76 fa 3d f9 d3 2a bf 92 f5 60 3e
       -0.5522711 0.12229581 -0.66729695 0.21968678
000040 ae dc 18 3f a0 06 f8 be fb 57 02 bf 35 0f 8e be
       0.5971173 -0.48442554 -0.509155 -0.27745977
000050 ff 45 09 bf b7 d2 4d bf 35 dd c5 3e 36 a4 2e bf
       -0.5362243 -0.8039965 0.3864533 -0.68219316
000060 56 11 47 3f 56 70 af be 78 c0 18 bf cf a7 22 3f
       0.7776083 -0.34265393 -0.59668684 0.63537306
000070 c9 d8 95 3e 6f 39 e8 3e 30 e2 a6 3d b9 fa 20 be
       0.29266956 0.45356318 0.081486106 -0.15720643
000080 44 5c 8e be 68 c9 6a bd 23 95 02 be 12 47 62 3e
       -0.27804768 -0.057320982 -0.12752204 0.22097424
000090 5d c6 49 be 22 d5 6f 3e c0 09 56 bc ac 06 07 3e
       -0.19704576 0.23421147 -0.013063848 0.13186139
0000a0 25 8a 99 3e 72 d3 4d 3f b5 00 35 3f 62 71 1c 3f
       0.29988208 0.80400765 0.70704204 0.6111051
0000b0 5e 61 ac bd ff 3d 80 3d 7e f1 21 bf ba c0 d6 be
       -0.08417009 0.06261825 -0.6325911 -0.41943914
0000c0 62 99 bb 3e 41 bd 85 3d 93 ce d1 3e f6 05 85 bd
       0.3664046 0.06530238 0.40977916 -0.064952776
0000d0 6e 8a 58 bf d5 2b 09 3e a3 13 57 bf 6d 57 24 3f
       -0.84586227 0.13395627 -0.8401434 0.641959
0000e0 b6 01 80 3f 88 c2 43 be ed 9b 25 bf 2d ee 1f bf
       1.0000522 -0.19117177 -0.6469105 -0.624728
0000f0 7e 26 b1 be 2b 2d c8 3e f6 d2 63 3f d3 b4 c4 3e
       -0.3459968 0.3909696 0.88993776 0.38419208
000100 91 76 02 3e a9 21 b1 be 36 64 ff be 44 6e 6f bc
       0.12740542 -0.34595993 -0.49881142 -0.014613692
000110 37 f8 18 3f b9 85 bb bc 2e 20 4b 3c e0 3c 9a 3d
       0.59753746 -0.022890912 0.012397809 0.07531142
000120 9d 66 70 3f bf 49 69 3e ec 72 bd 3e 5a 39 27 be
       0.93906575 0.22782038 0.3700174 -0.16330472
000130 ca 4d 23 bf 9d 02 0e be b1 5d c5 3e 74 d8 9e 3e
       -0.6379057 -0.13868184 0.38548043 0.31024516
000140 79 2b ea be 01 bb 33 bf 85 e6 33 3f b6 ae 22 bf
       -0.45736292 -0.7020722 0.7027362 -0.6354784
000150 53 82 18 3f bb 01 1c bf 2e 35 e9 be 72 d2 31 3f
       0.5957386 -0.6094014 -0.45548385 0.6946174
000160 ff d6 29 3f 59 1c b3 3e d8 1d ed 3e 2f 0f cf 3e
       0.66343683 0.34982565 0.4631183 0.40441272
000170 e9 df 1f bf 41 88 0b 3f 50 6e 64 bf ad ec 1c 3f
       -0.62451035 0.5450478 -0.89230824 0.6129864
000180 9f 2a 90 3f 36 3e 8a be 6d 20 1f bf 31 f1 0d bf
       1.1263007 -0.27000588 -0.6215885 -0.55446154

network.2.bias f4 [10]
000000 4e ff 2d 3f 52 fc 09 3e 74 d6 21 3f b2 76 8f be
       0.6796769 0.13475159 0.63217854 -0.28020245
000010 77 79 0b 3f d7 b7 7c 3e 96 6f 06 3f 22 26 0c 3f
       0.54482216 0.24679504 0.52514017 0.54745686
000020 2e 07 9b 3d dc 7a b9 bd
       0.07569729 -0.09056637

network.4.weight f4 [3, 10]
000000 0b b1 56 3e 32 da 1c bf 4c ea de 3e 88 58 31 3e
       0.20965974 -0.6127044 0.4353813 0.17318928
000010 a6 8b 57 bf 75 60 02 bf c3 33 2a be 3a 47 27 bd
       -0.8419746 -0.5092843 -0.16621308 -0.04083941
000020 64 f2 18 3f 78 76 61 bf f7 cd 39 3f 2f 89 fd be
       0.5974486 -0.88071394 0.725799 -0.49518725
000030 a9 db 24 bf 40 24 84 bc ce 9a 40 3f 5b 08 3d bf
       -0.64397675 -0.016130567 0.75236213 -0.73840874
000040 b5 22 09 3f 2d 12 0a 3f d5 3a 4a bf 4e 23 0d bf
       0.53568584 0.53933984 -0.7899602 -0.55131996
000050 e0 b8 25 bf 74 93 0f 3f 4d 97 80 be c1 0b 81 3e
       -0.6473522 0.5608437 -0.25115433 0.2520428
000060 6b f1 92 be 54 7a ca 3e 09 4a 24 bf e0 99 79 bf
       -0.28699812 0.39546454 -0.6417547 -0.9750042
000070 60 07 2b be c5 6a fb 3e
       -0.16702032 0.49104896

network.4.bias f4 [3]
000000 fe 17 ba be 51 ff 2e bd 58 5a 30 be
       -0.3634643 -0.042723957 -0.17221963
