Neural Network Fitting/sine_fit.pt (torch, 3090 bytes, 5 tensors)

network.0.weight f4 [12, 1]
00000000: b124 3d3f f00a 5a3f d072 c4bd c51b 88be
00000010: 8231 883e 33ef 3a3f 9845 50be 88e3 bebe
00000020: 61fa b63e 80fa 043c 8ce4 4d3f 6eae 2c3f
0.7388411 0.8517294 -0.09592211 -0.26583686 0.2660027 0.7302124 -0.20339048 -0.37282968
0.357379 0.0081163645 0.8042686 0.6745366

network.0.bias f4 [12]
00000000: 74cc d9be f881 e93e 4c28 d0be b33c 683f
00000010: 7cbd a13f 4061 cfbe 0adb 67bf ccc9 d9be
00000020: d16e 593f 5010 f0be bb03 50bf c3a6 9d3f
-0.42538798 0.4560697 -0.40655744 0.9071762 1.2635951 -0.40503883 -0.905686 -0.4253677
0.8493472 -0.46887445 -0.8125569 1.2316517

network.2.weight f4 [8, 12]
00000000: 35de ecbe 7caf ce3d f5b1 55be 1e00 303e
00000010: 6abf 10be 7811 fdbc e0b7 bbbc 2594 0c3f
00000020: f6f0 a83e 4af1 303e ca71 aabe b872 173e
00000030: 9a12 153e d7a1 c5be 341d e23d 559d 2a3e
00000040: b7a0 2d3f ae9d b0be c31a 87be 882c 8fbe
00000050: b356 023e 0cac 133e c1c4 81bc 9a69 bbbe
00000060: 08d7 dfbe 2da2 20be 9dfa 47be 0224 5a3d
00000070: 7807 0cbd 03fd 90bc b086 f83c ba97 d23e
00000080: 1c8f 9c3e 50e7 1cbe f57a a3be 03f5 923e
00000090: 578c 3a3e d2a8 0a3c 8f4d 1fbe 1db8 383e
000000a0: b60c 0e3f e2de a3be d087 253d 78c0 c5be
000000b0: 9e5a bd3d 49b3 56be 12db bbbe 21d2 ddbe
000000c0: 5bb0 a0be a5c5 29be b421 b43d fd10 b73e
000000d0: 45e5 983e 4695 92be a41f 193e 3bf8 e93e
000000e0: 63a4 e63e 32ac 83be c954 12bf 62ca 8b3e
000000f0: 4784 76be 8c0c 8fbe ea83 1d3e ae96 e63e
00000100: eebe 043f e5ac 08be 2037 3e3d 1e32 25bf
00000110: 3768 3dbd 70ff 393e f97a 0d3d 3aed 88bd
00000120: d8c5 83be dd50 8bbc 2cf7 3cbd a1e2 4dbe
00000130: 78b6 d33e 2020 41be 50ae 95bc 9681 c5be
00000140: 7135 ffbb e03a 3ebc 1b95 9abe 2f4e 983e
00000150: c398 91be 80e1 18be 9818 73be 1c00 cf3e
00000160: 5985 0d3f 4452 a2bd 0352 3fbe b264 3ebf
00000170: 1eb4 2dbe e076 1a3e d278 ebbe 2ff2 6abd
-0.4626328 0.10092065 -0.20868666 0.17187545 -0.14135519 -0.030892119 -0.022914827 0.5491355
0.3299634 0.17279544 -0.3328994 0.14789855 0.14557877 -0.38600037 0.11040726 0.1666158
0.67823356 -0.344953 -0.26387605 -0.27963662 0.12728386 0.144211 -0.01584089 -0.36604005
-0.43718743 -0.15686865 -0.19529195 0.053256996 -0.03418681 -0.01769877 0.030337662 0.41131383
0.30577934 -0.15322614 -0.31929746 0.28702554 0.18217598 0.008463101 -0.1555693 0.18038984
0.55488145 -0.32005984 0.040412724 -0.38623405 0.092457995 -0.2096683 -0.36690575 -0.43324378
-0.3138455 -0.16579302 0.08795491 0.3575515 0.2986242 -0.28629512 0.14953476 0.45697197
0.45047292 -0.25717312 -0.5716062 0.27302843 -0.24073897 -0.2793926 0.15382352 0.45036834
0.51853836 -0.13347204 0.04643929 -0.645296 -0.046241965 0.18163848 0.034541104 -0.066858724
-0.2573688 -0.017006332 -0.04613416 -0.20105983 0.4135015 -0.18859911 -0.018271595 -0.3857543
-0.007788353 -0.011610717 -0.30191883 0.2974715 -0.2843686 -0.14929771 -0.2373985 0.4042977
0.552816 -0.07925847 -0.18683629 -0.743724 -0.1696324 0.1508441 -0.45990616 -0.05735987

network.2.bias f4 [8]
00000000: 278b a73e f8bd 253e e704 cf3e b793 d13e
00000010: 8d67 383e 53bc af3e 7e69 7c3e ddd9 0e3e
0.32723352 0.16185749 0.40433428 0.4093301 0.18008251 0.34323367 0.24649617 0.13950296

network.4.weight f4 [1, 8]
00000000: b600 f13e c8fa 2fbf d335 f33e d58a 06bf
00000010: 11f6 0d3f 3360 d1be 5cd6 c63e 8de0 ffbe
0.47070855 -0.68742037 0.47502002 -0.5255559 0.5545359 -0.40893707 0.38835418 -0.49976006
